(base) uchiyats@uchiyats-Super-Server:~/translation/translateCTC_mask$ MyE2EModel(
  (encoder): Encoder(
    (embed): Embedding(61655, 1024)
    (pos_emb): Embedding(300, 1024)
    (blocks): ModuleList(
      (0-11): 12 x ResidualAttentionBlock(
        (attn): MultiHeadAttention(
          (query): Linear(in_features=1024, out_features=1024, bias=True)
          (key): Linear(in_features=1024, out_features=1024, bias=False)
          (value): Linear(in_features=1024, out_features=1024, bias=True)
          (out): Linear(in_features=1024, out_features=1024, bias=True)
          (layer_norm): LayerNorm((1024,), eps=1e-05, elementwise_affine=True)
          (dropout): Dropout(p=0.1, inplace=False)
        )
        (attn_ln): LayerNorm((1024,), eps=1e-05, elementwise_affine=True)
        (pos_ffn): PositionwiseFeedForward(
          (w_1): Conv1d(1024, 2048, kernel_size=(9,), stride=(1,), padding=(4,))
          (w_2): Conv1d(2048, 1024, kernel_size=(1,), stride=(1,))
          (layer_norm): LayerNorm((1024,), eps=1e-05, elementwise_affine=True)
          (dropout): Dropout(p=0.1, inplace=False)
        )
      )
    )
    (dropout): Dropout(p=0.1, inplace=False)
  )
  (decoder): Decoder(
    (embed): Embedding(57854, 1024)
    (pos_emb): Embedding(900, 1024)
    (blocks): ModuleList(
      (0-11): 12 x ResidualAttentionBlock(
        (attn): MultiHeadAttention(
          (query): Linear(in_features=1024, out_features=1024, bias=True)
          (key): Linear(in_features=1024, out_features=1024, bias=False)
          (value): Linear(in_features=1024, out_features=1024, bias=True)
          (out): Linear(in_features=1024, out_features=1024, bias=True)
          (layer_norm): LayerNorm((1024,), eps=1e-05, elementwise_affine=True)
          (dropout): Dropout(p=0.1, inplace=False)
        )
        (attn_ln): LayerNorm((1024,), eps=1e-05, elementwise_affine=True)
        (cross_attn): MultiHeadAttention(
          (query): Linear(in_features=1024, out_features=1024, bias=True)
          (key): Linear(in_features=1024, out_features=1024, bias=False)
          (value): Linear(in_features=1024, out_features=1024, bias=True)
          (out): Linear(in_features=1024, out_features=1024, bias=True)
          (layer_norm): LayerNorm((1024,), eps=1e-05, elementwise_affine=True)
          (dropout): Dropout(p=0.1, inplace=False)
        )
        (cross_attn_ln): LayerNorm((1024,), eps=1e-05, elementwise_affine=True)
        (pos_ffn): PositionwiseFeedForward(
          (w_1): Conv1d(1024, 4096, kernel_size=(5,), stride=(1,), padding=(2,))
          (w_2): Conv1d(4096, 1024, kernel_size=(1,), stride=(1,))
          (layer_norm): LayerNorm((1024,), eps=1e-05, elementwise_affine=True)
          (dropout): Dropout(p=0.1, inplace=False)
        )
      )
    )
  )
  (classifier): Linear(in_features=1024, out_features=57854, bias=False)
)
epoch 1/15:
n_batch:5,phase:    train,avg_loss:1.184e+00, avg_error_rate:1.556e+02
n_batch:10,phase:    train,avg_loss:9.537e-01, avg_error_rate:1.254e+02
n_batch:15,phase:    train,avg_loss:8.599e-01, avg_error_rate:1.147e+02
n_batch:20,phase:    train,avg_loss:7.988e-01, avg_error_rate:1.087e+02
n_batch:25,phase:    train,avg_loss:7.634e-01, avg_error_rate:1.048e+02
…
