MyE2EModel(
  (encoder): Encoder(
    (embed): Embedding(61655, 1024)
    (pos_emb): Embedding(300, 1024)
    (blocks): ModuleList(
      (0-11): 12 x ResidualAttentionBlock(
        (attn): MultiHeadAttention(
          (query): Linear(in_features=1024, out_features=1024, bias=True)
          (key): Linear(in_features=1024, out_features=1024, bias=False)
          (value): Linear(in_features=1024, out_features=1024, bias=True)
          (out): Linear(in_features=1024, out_features=1024, bias=True)
          (layer_norm): LayerNorm((1024,), eps=1e-05, elementwise_affine=True)
          (dropout): Dropout(p=0.1, inplace=False)
        )
        (attn_ln): LayerNorm((1024,), eps=1e-05, elementwise_affine=True)
        (pos_ffn): PositionwiseFeedForward(
          (w_1): Conv1d(1024, 2048, kernel_size=(9,), stride=(1,), padding=(4,))
          (w_2): Conv1d(2048, 1024, kernel_size=(1,), stride=(1,))
          (layer_norm): LayerNorm((1024,), eps=1e-05, elementwise_affine=True)
          (dropout): Dropout(p=0.1, inplace=False)
        )
      )
    )
    (dropout): Dropout(p=0.1, inplace=False)
  )
  (decoder): Decoder(
    (embed): Embedding(57854, 1024)
    (pos_emb): Embedding(600, 1024)
    (blocks): ModuleList(
      (0-11): 12 x ResidualAttentionBlock(
        (attn): MultiHeadAttention(
          (query): Linear(in_features=1024, out_features=1024, bias=True)
          (key): Linear(in_features=1024, out_features=1024, bias=False)
          (value): Linear(in_features=1024, out_features=1024, bias=True)
          (out): Linear(in_features=1024, out_features=1024, bias=True)
          (layer_norm): LayerNorm((1024,), eps=1e-05, elementwise_affine=True)
          (dropout): Dropout(p=0.1, inplace=False)
        )
        (attn_ln): LayerNorm((1024,), eps=1e-05, elementwise_affine=True)
        (cross_attn): MultiHeadAttention(
          (query): Linear(in_features=1024, out_features=1024, bias=True)
          (key): Linear(in_features=1024, out_features=1024, bias=False)
          (value): Linear(in_features=1024, out_features=1024, bias=True)
          (out): Linear(in_features=1024, out_features=1024, bias=True)
          (layer_norm): LayerNorm((1024,), eps=1e-05, elementwise_affine=True)
          (dropout): Dropout(p=0.1, inplace=False)
        )
        (cross_attn_ln): LayerNorm((1024,), eps=1e-05, elementwise_affine=True)
        (pos_ffn): PositionwiseFeedForward(
          (w_1): Conv1d(1024, 4096, kernel_size=(5,), stride=(1,), padding=(2,))
          (w_2): Conv1d(4096, 1024, kernel_size=(1,), stride=(1,))
          (layer_norm): LayerNorm((1024,), eps=1e-05, elementwise_affine=True)
          (dropout): Dropout(p=0.1, inplace=False)
        )
      )
    )
  )
  (classifier): Linear(in_features=1024, out_features=57854, bias=False)
)
epoch 1/25:
steps:5,loss:11.274621963500977
steps:10,loss:10.07509708404541
steps:15,loss:9.541936874389648
steps:20,loss:9.323524475097656
steps:25,loss:9.075039863586426
steps:30,loss:9.12313461303711
steps:35,loss:8.919279098510742
steps:40,loss:8.83132266998291
steps:45,loss:8.916919708251953
steps:50,loss:8.857536315917969
steps:55,loss:8.72925090789795
…
